…
[jagupard32] 2024-10-05 00:02:57,972 (s3prl:117) INFO: Pretrained S3PRL frontend model parameters reloaded!
[jagupard32] 2024-10-05 00:02:58,478 (abs_task:1308) INFO: pytorch.version=2.1.0, cuda.available=True, cudnn.version=8902, cudnn.benchmark=False, cudnn.deterministic=True
[jagupard32] 2024-10-05 00:02:58,483 (abs_task:1309) INFO: Model structure:
ESPnetASRModel(
  (frontend): S3prlFrontend(
    (upstream): S3PRLUpstream(
      (upstream): UpstreamExpert(
        (model): Wav2Vec2Model(
          (feature_extractor): Wav2Vec2FeatureEncoder(
            (conv_layers): ModuleList(
              (0): Wav2Vec2LayerNormConvLayer(
                (conv): Conv1d(1, 512, kernel_size=(10,), stride=(5,))
                (layer_norm): LayerNorm((512,), eps=1e-05, elementwise_affine=True)
                (activation): GELUActivation()
              )
              (1-4): 4 x Wav2Vec2LayerNormConvLayer(
                (conv): Conv1d(512, 512, kernel_size=(3,), stride=(2,))
                (layer_norm): LayerNorm((512,), eps=1e-05, elementwise_affine=True)
                (activation): GELUActivation()
              )
              (5-6): 2 x Wav2Vec2LayerNormConvLayer(
                (conv): Conv1d(512, 512, kernel_size=(2,), stride=(2,))
                (layer_norm): LayerNorm((512,), eps=1e-05, elementwise_affine=True)
                (activation): GELUActivation()
              )
            )
          )
          (feature_projection): Wav2Vec2FeatureProjection(
            (layer_norm): LayerNorm((512,), eps=1e-05, elementwise_affine=True)
            (projection): Linear(in_features=512, out_features=1024, bias=True)
            (dropout): Dropout(p=0.1, inplace=False)
          )
          (encoder): Wav2Vec2EncoderStableLayerNorm(
            (pos_conv_embed): Wav2Vec2PositionalConvEmbedding(
              (conv): ParametrizedConv1d(
                1024, 1024, kernel_size=(128,), stride=(1,), padding=(64,), groups=16
                (parametrizations): ModuleDict(
                  (weight): ParametrizationList(
                    (0): _WeightNorm()
                  )
                )
              )
              (padding): Wav2Vec2SamePadLayer()
              (activation): GELUActivation()
            )
            (layer_norm): LayerNorm((1024,), eps=1e-05, elementwise_affine=True)
            (dropout): Dropout(p=0.1, inplace=False)
            (layers): ModuleList(
              (0-23): 24 x Wav2Vec2EncoderLayerStableLayerNorm(
                (attention): Wav2Vec2Attention(
                  (k_proj): Linear(in_features=1024, out_features=1024, bias=True)
                  (v_proj): Linear(in_features=1024, out_features=1024, bias=True)
                  (q_proj): Linear(in_features=1024, out_features=1024, bias=True)
                  (out_proj): Linear(in_features=1024, out_features=1024, bias=True)
                )
                (dropout): Dropout(p=0.1, inplace=False)
                (layer_norm): LayerNorm((1024,), eps=1e-05, elementwise_affine=True)
                (feed_forward): Wav2Vec2FeedForward(
                  (intermediate_dropout): Dropout(p=0.0, inplace=False)
                  (intermediate_dense): Linear(in_features=1024, out_features=4096, bias=True)
                  (intermediate_act_fn): GELUActivation()
                  (output_dense): Linear(in_features=4096, out_features=1024, bias=True)
                  (output_dropout): Dropout(p=0.1, inplace=False)
                )
                (final_layer_norm): LayerNorm((1024,), eps=1e-05, elementwise_affine=True)
              )
            )
          )
        )
      )
    )
    (featurizer): Featurizer()
  )
  (specaug): SpecAug(
    (time_warp): TimeWarp(window=5, mode=bicubic)
    (freq_mask): MaskAlongAxis(mask_width_range=[0, 27], num_mask=2, axis=freq)
    (time_mask): MaskAlongAxisVariableMaxWidth(mask_width_ratio_range=[0.0, 0.05], num_mask=10, axis=time)
  )
  (normalize): UtteranceMVN(norm_means=True, norm_vars=False)
  (preencoder): LinearProjection(
    (linear_out): Linear(in_features=1024, out_features=80, bias=True)
    (dropout): Dropout(p=0.0, inplace=False)
  )
  (encoder): TransformerEncoder(
    (embed): Conv2dSubsampling2(
      (conv): Sequential(
        (0): Conv2d(1, 256, kernel_size=(3, 3), stride=(2, 2))
        (1): ReLU()
        (2): Conv2d(256, 256, kernel_size=(3, 3), stride=(1, 1))
        (3): ReLU()
      )
      (out): Sequential(
        (0): Linear(in_features=9472, out_features=256, bias=True)
        (1): PositionalEncoding(
          (dropout): Dropout(p=0.1, inplace=False)
        )
      )
    )
    (encoders): MultiSequential(
      (0): EncoderLayer(
        (self_attn): MultiHeadedAttention(
          (linear_q): Linear(in_features=256, out_features=256, bias=True)
          (linear_k): Linear(in_features=256, out_features=256, bias=True)
          (linear_v): Linear(in_features=256, out_features=256, bias=True)
          (linear_out): Linear(in_features=256, out_features=256, bias=True)
          (dropout): Dropout(p=0.1, inplace=False)
        )
        (feed_forward): PositionwiseFeedForward(
          (w_1): Linear(in_features=256, out_features=1024, bias=True)
          (w_2): Linear(in_features=1024, out_features=256, bias=True)
          (dropout): Dropout(p=0.1, inplace=False)
          (activation): ReLU()
        )
        (norm1): LayerNorm((256,), eps=1e-12, elementwise_affine=True)
        (norm2): LayerNorm((256,), eps=1e-12, elementwise_affine=True)
        (dropout): Dropout(p=0.1, inplace=False)
      )
      (1): EncoderLayer(
        (self_attn): MultiHeadedAttention(
          (linear_q): Linear(in_features=256, out_features=256, bias=True)
          (linear_k): Linear(in_features=256, out_features=256, bias=True)
          (linear_v): Linear(in_features=256, out_features=256, bias=True)
          (linear_out): Linear(in_features=256, out_features=256, bias=True)
          (dropout): Dropout(p=0.1, inplace=False)
        )
        (feed_forward): PositionwiseFeedForward(
          (w_1): Linear(in_features=256, out_features=1024, bias=True)
          (w_2): Linear(in_features=1024, out_features=256, bias=True)
          (dropout): Dropout(p=0.1, inplace=False)
          (activation): ReLU()
        )
        (norm1): LayerNorm((256,), eps=1e-12, elementwise_affine=True)
        (norm2): LayerNorm((256,), eps=1e-12, elementwise_affine=True)
        (dropout): Dropout(p=0.1, inplace=False)
      )
    )
    (after_norm): LayerNorm((256,), eps=1e-12, elementwise_affine=True)
  )
  (criterion_att): LabelSmoothingLoss(
    (criterion): KLDivLoss()
  )
  (ctc): CTC(
    (ctc_lo): Linear(in_features=256, out_features=2550, bias=True)
    (ctc_loss): DROCTCLoss()
  )
)

Model summary:
    Class Name: ESPnetASRModel
    Total Number of model parameters: 320.77 M
    Number of trainable parameters: 320.77 M (100.0%)
    Size: 1.28 GB
    Type: torch.float32
[jagupard32] 2024-10-05 00:02:58,483 (abs_task:1312) INFO: Optimizer:
Adam (
Parameter Group 0
    amsgrad: False
    betas: (0.9, 0.999)
…
